save/checkpoint_epoch112.pth (torch, 200364 bytes, 110 tensors)

multi_head_attention.cls_token f4 [1, 1, 32]
0	0xbe33cf4c	-0.17559546
1	0xbd804db8	-0.06264824
2	0xbea5343f	-0.32266423
3	0xbdb5f11b	-0.08883878
4	0x3ee7d095	0.45276323
5	0x3d514305	0.051089305
6	0xbd05bc43	-0.032650243
7	0xbe4362ea	-0.19080701
8	0xbe7dd8e4	-0.24789768
9	0xbde7963e	-0.11307953
10	0xbe533a59	-0.20627727
11	0x3e94782a	0.28997928
12	0x3ef039f0	0.46919203
13	0xbe000962	-0.1250358
14	0xbdf1cc46	-0.1180654
15	0x3c006a2e	0.007837815
16	0xbe6530a7	-0.2238184
17	0xbe5db4b9	-0.21650971
18	0x3d54be69	0.0519394
19	0x3f0b2aef	0.54362386
20	0xbe202a82	-0.15641215
21	0x3e793159	0.24335231
22	0xbebd8515	-0.37015596
23	0xbcb5b46b	-0.022180757
24	0xbb52dd31	-0.0032175297
25	0x3dfdb7be	0.12388562
26	0xbed1ad85	-0.40952697
27	0xbe8f7ba3	-0.28024015
28	0x3e6da295	0.23206551
29	0x3e8e4083	0.27783594
30	0xbec6cd64	-0.38828576
31	0x3cb753a6	0.022378754

multi_head_attention.patch_embeddings.weight f4 [32, 1, 16, 16]
0	0x3d5c3c3c	0.05376838
1	0x3dfc0552	0.12305702
2	0x3dbb10b4	0.09134045
3	0x3d998478	0.074959695
4	0x3dfd61f4	0.12372199
5	0xbd9a3c4a	-0.075310305
6	0xbc873b0f	-0.016507654
7	0x3e449cc0	0.1920042
8	0x3dd65101	0.10464669
9	0x3e8781bc	0.26466167
10	0x3e938bc1	0.2881756
11	0x3e225c86	0.15855607
12	0x3ca0b16a	0.019615848
13	0x3d33c844	0.04389216
14	0xbe7440b6	-0.2385281
15	0xbe272159	-0.16321315
16	0x3cabb9c9	0.020962613
17	0xbda55093	-0.08072009
18	0xbcd9d8df	-0.02659267
19	0x3d992c1e	0.07479118
20	0x3d4e81c6	0.05041673
21	0xbd1dd7b8	-0.038535804
22	0xbd0e5027	-0.034744408
23	0xbd0c3934	-0.03423424
24	0x3dae87b3	0.08521976
25	0x3c54c2ac	0.0129858665
26	0x3dae2d4d	0.08504734
27	0x3e0babdc	0.13639778
28	0x3dcea608	0.10090262
29	0xbc58e582	-0.013238313
30	0xbc9cd627	-0.019145085
31	0xbc1839c1	-0.009291113
32	0xbd8e2b30	-0.06941831
33	0xbe0f48ca	-0.1399261
34	0x3c71e11c	0.014763143
35	0x3c45ec8d	0.012080324
36	0x3de7ee64	0.11324766
37	0x3ce83eee	0.02835032
38	0x3c5a753b	0.013333614
39	0x3d9a605f	0.075379126
40	0xbdb73888	-0.08946329
41	0x3abe355f	0.0014511755
42	0xbd1142b0	-0.03546399
43	0x3dcc391a	0.09971829
44	0xbd8a2a9e	-0.0674641
45	0x3c9aaa58	0.018880054
46	0xbc2b3752	-0.010450201
47	0xbe277609	-0.1635362
48	0xbce76883	-0.028248077
49	0x3c20f123	0.0098231165
50	0x3da2b542	0.079447284
51	0xbd3ad535	-0.045613486
52	0x3d89c260	0.06726527
53	0x3df44f1d	0.11929152
54	0xbc70bc74	-0.014693368
55	0xbcd95ebf	-0.026534436
56	0xbda7b894	-0.08189502
57	0x3d09aab8	0.033610076
58	0xbe309f8d	-0.17248364
59	0xbd8b9aab	-0.0681661
60	0xbcb3d241	-0.021950843
61	0xbc284d3d	-0.010272321
62	0xbd382671	-0.044958536
63	0xbdbf5e05	-0.09344105
64	0xbd2b9720	-0.04189217
65	0xbd2a87a4	-0.041633263
66	0x3cdcdf6a	0.026962
67	0xbb1cb36a	-0.002391065
68	0xbd8dcfce	-0.06924401
69	0xbd12f5b9	-0.03587887
70	0x3b56044b	0.0032656367
71	0xbdc3cc56	-0.09560458
72	0xbdbc439d	-0.09192584
73	0xbdb47958	-0.08812207
74	0xbdc3962d	-0.09550128
75	0xbdea94a7	-0.114541344
76	0xbd67ffe0	-0.056640506
77	0x3af77a0a	0.0018880975
78	0x3de23803	0.1104584
79	0xbd80fa38	-0.062977254
80	0xbc918c21	-0.017767014
81	0xbe175cce	-0.14781496
82	0x3d7b4623	0.061346184
83	0xbdf9c82d	-0.121963836
84	0xbdf92cc7	-0.12166744
85	0x3d8a71e6	0.06760006
86	0x3dd25e6d	0.102719165
87	0x3e03bf5c	0.12865967
88	0x3db0bb43	0.08629467
89	0xbe57c644	-0.21071726
90	0xbe2ecf80	-0.17071342
91	0xbde83dbb	-0.11339899
92	0x3d071026	0.032974385
93	0x3d808ea8	0.062772095
94	0x3daaf0d0	0.083467126
95	0x3c361fee	0.011116011
96	0xbd97b4c8	-0.07407528
97	0xbdbe7811	-0.093002446
98	0x3cf5b329	0.029992657
99	0xbd2d7b7c	-0.042354092
100	0xbe3014e5	-0.1719547
101	0xbd2306ee	-0.03980153
102	0xbd2cbcb7	-0.04217216
103	0x3e0bda14	0.13657409
104	0x3e4c27ba	0.1993703
105	0x3daa7685	0.08323387
106	0xbe392b16	-0.18082842
107	0xbe3e356c	-0.18575066
108	0x3dd3587d	0.10319612
109	0x3d592427	0.053012993
110	0x3d02d3d2	0.03194029
111	0xbe14b657	-0.14522682
112	0x3c57017b	0.013122912
113	0xbb33ae8b	-0.0027417268
114	0xbd946d0a	-0.0724736
115	0xbd72529c	-0.059160814
116	0xbe1e1453	-0.1543744
117	0xbd6f3161	-0.0583967
118	0xbe3d1d9f	-0.18468331
119	0x3a8af347	0.0010601067
120	0xbe01cacf	-0.12675022
121	0x3dba2b6f	0.090903156
122	0x3e48bb4e	0.19602701
123	0xbe2c4039	-0.16821374
124	0x3cf63746	0.030055653
125	0x3c9e6883	0.019336944
126	0xb6731bc7	-3.622599e-06
127	0xbe02a3b6	-0.12757763
128	0xbd81efc3	-0.06344559
129	0xbcfc9ea6	-0.030837368
130	0x3dca5598	0.09879607
131	0x3d9aa37b	0.07550713
132	0x3d9db4a3	0.07700469
133	0x3dee2a6b	0.11629184
134	0xbd4f8627	-0.050665047
135	0xbdb1e504	-0.086862594
136	0xbe78d96a	-0.24301687
137	0xbd5e7a70	-0.054315984
138	0x3d02d079	0.031937096
139	0x3d555cac	0.052090332
140	0x3df1eff8	0.118133485
141	0x3e04969a	0.12948075
142	0xba56ba54	-0.0008191217
143	0xbd951343	-0.072790645
144	0xbda4e4aa	-0.08051427
145	0xbd0ff16a	-0.03514234
146	0x3e16ff9e	0.14745948
147	0x3cbd5690	0.023112565
148	0x3c141c65	0.009039973
149	0x3cafd3b9	0.021463262
150	0x3da07be2	0.07836129
151	0x3d82c63b	0.06385466
152	0xbc25856a	-0.010102609
153	0x3dcdab82	0.10042478
154	0x3d0cf7bf	0.034415957
155	0x3db3ae3c	0.08773467
156	0x3d3d434b	0.046206754
157	0x3dfdbec8	0.12389904
158	0xbbbc6819	-0.005749714
159	0xbe1fbbfc	-0.15599054
160	0x3c13f5cb	0.00903077
161	0x3da4e09e	0.08050655
162	0xbddb3e39	-0.107052274
163	0x3dd72e6f	0.105069034
164	0xbe415f07	-0.18883906
165	0xbe280158	-0.16406763
166	0x3d6b4318	0.057437032
167	0x3d99b0c9	0.07504422
168	0x3e6ff683	0.2343388
169	0x3da175a8	0.07883769
170	0x3e2e28c1	0.17007734
171	0xbb41f5b5	-0.0029595916
172	0x3acf8cac	0.001583477
173	0xbc997a2d	-0.018735016
174	0x3d2ac41b	0.041690927
175	0xbd83a23a	-0.06427427
176	0xbdf58650	-0.11988509
177	0xbd0a9361	-0.033831958
178	0x3ce4fcce	0.027952578
179	0x3c95d712	0.01829103
180	0xbdc4cfcf	-0.09609949
181	0xbe7d1850	-0.24716306
182	0xbe5f56bc	-0.2181043
183	0xbd436022	-0.0476991
184	0x3d915d09	0.07097823
185	0xbca1258b	-0.019671222
186	0x3df24c16	0.118309185
187	0x3c8b7434	0.017023183
188	0x3e0606c5	0.1308852
189	0x3c1e02e2	0.009644242
190	0xbd5f297c	-0.054482922
191	0x3d714226	0.058900975
192	0x3c924b2a	0.017858107
193	0x3bc628e0	0.006047353
194	0x3d070684	0.0329652
195	0xbceb0097	-0.028686805
196	0xbdb37905	-0.08763317
197	0xbde9c5d6	-0.11414687
198	0xbda7b6b2	-0.08189143
199	0xbe7ddcec	-0.24791306
200	0xbd89d95b	-0.067309104
201	0xbdb3fa3a	-0.08787961
202	0x3c4c9378	0.012486331
203	0x3ba02a8d	0.004887885
204	0xbe013e3b	-0.12621395
205	0xbe084fdd	-0.13311715
206	0xbd8e6407	-0.069526725
207	0xbe072c40	-0.13200474
208	0xbdaa8505	-0.08326153
209	0x3e1703be	0.14747521
210	0xbcf2d64d	-0.029643202
211	0xbc9d5d2c	-0.019209467
212	0xbcfb842f	-0.030702678
213	0xbc01adc2	-0.007914962
214	0x3cad3aa0	0.021146119
215	0xbe326971	-0.17423035
216	0xbe07c1d0	-0.13257527
217	0xbda9a364	-0.082831174
218	0x3cec141c	0.028818183
219	0x3e05975b	0.13046019
220	0xbdff2153	-0.12457528
221	0xbd450cb1	-0.048107807
222	0xbad67e8a	-0.0016364616
223	0xbd922d56	-0.071375534
224	0xbcc08227	-0.023499561
225	0x3d0ca5de	0.03433787
226	0xbe6777aa	-0.22604242
227	0xbd20d345	-0.039263982
228	0xbd813b3e	-0.06310128
229	0xbd28f418	-0.04124841
230	0x3e5e9011	0.21734644
231	0x3dcb0103	0.09912302
232	0x3e1164cd	0.14198609
233	0xbda32a09	-0.07967002
234	0xbd29a86c	-0.041420385
235	0x3d8eeca1	0.06978727
236	0x3c9c0a58	0.019047901
237	0xbb897bdb	-0.004195673
238	0x3cb826c3	0.02247942
239	0xbe264d1f	-0.16240357
240	0x3dfacb41	0.12245799
241	0x3c945178	0.018105254
242	0x3d08c2e5	0.03338899
243	0x3d029fbd	0.03189062
244	0xbde9d4f1	-0.114175685
245	0xbddeb334	-0.10874024
246	0x3dd5c3e5	0.104377545
247	0x3e1b84ce	0.1518738
248	0x3e9887f3	0.2979122
249	0x3c96cc9c	0.018408112
250	0xbc550b32	-0.013003157
251	0xbe046cc5	-0.12932117
252	0xbc61d68d	-0.013784063
253	0x3d0a1068	0.033707052
254	0xbe373046	-0.17889509
255	0xbdc738ac	-0.09727606

multi_head_attention.patch_embeddings.bias f4 [32]
0	0x3e35c956	0.17752585
1	0xbd74949d	-0.05971204
2	0x3e66d18f	0.22540878
3	0x3d95da44	0.073170215
4	0xbe74241a	-0.23841897
5	0xbec7b06c	-0.39001787
6	0xbbd51de7	-0.006503809
7	0xbd4f50fc	-0.050614342
8	0x3f05e793	0.5230648
9	0x3e9a9b33	0.30196533
10	0x3e79d88d	0.24399014
11	0xbe516c7c	-0.2045154
12	0xbf0a7804	-0.5408938
13	0x3ea443be	0.32082933
14	0x3e94c370	0.29055357
15	0x3da5d749	0.08097703
16	0x3ce6dfc2	0.028182868
17	0x3e1f9b34	0.15586549
18	0x3daf818d	0.08569632
19	0xbeee6f0f	-0.46569106
20	0x3d06f634	0.03294964
21	0xbed0de02	-0.4079438
22	0x3e8f0894	0.27936232
23	0x3e00a854	0.12564212
24	0x3e9ab4fc	0.30216205
25	0xbecfdddb	-0.4059895
26	0x3e5c3c23	0.21507315
27	0x3ec8ef5a	0.3924511
28	0xbe666fa2	-0.22503522
29	0xbe7d7a23	-0.24753623
30	0x3e23caa7	0.15995274
31	0xbc1ad0f2	-0.0094492305

multi_head_attention.attn1.in_proj_weight f4 [96, 32]
0	0x3e663129	0.2247969
1	0xbc66c68b	-0.014085422
2	0x3d3df79a	0.04637871
3	0x3d70c31c	0.05877982
4	0xbe33265c	-0.17495102
5	0xbd025305	-0.031817455
6	0x3d5255b0	0.05135125
7	0xbd7e6284	-0.06210567
8	0xbdd9e8b4	-0.10640088
9	0xbd881d35	-0.06646196
10	0xbe2bb567	-0.16768418
11	0xbccad3c6	-0.024759185
12	0xbe2c0dcf	-0.16802143
13	0xbdf5123d	-0.11966369
14	0x3da7a66b	0.081860386
15	0xbe0416fe	-0.12899396
16	0x3d9f956a	0.0779217
17	0xbe212e72	-0.15740374
18	0x3c87fc5f	0.016599832
19	0xbe1702cd	-0.14747162
20	0x3d81ae8e	0.06332122
21	0xbcb15656	-0.021647613
22	0xbda2b9e5	-0.07945613
23	0xbe2b82c1	-0.16749097
24	0xbe12e5c1	-0.14345457
25	0x3d298024	0.04138197
26	0x3e32e6cf	0.17470859
27	0xbe0d7306	-0.13813409
28	0xbe131e00	-0.14366913
29	0x3d1c82fd	0.038210858
30	0x3d462aac	0.04838054
31	0x3d13c719	0.036078546
32	0xbe0d58cd	-0.13803406
33	0x3d290925	0.041268487
34	0x3cb9140e	0.02259257
35	0xbe003336	-0.12519535
36	0x3dbadc15	0.091240086
37	0xbdbdf768	-0.092757046
38	0x3e1d555b	0.15364592
39	0x3de59d2f	0.11211621
40	0xbdd546a9	-0.10413868
41	0xbdb7a940	-0.08967829
42	0xbc61f2a6	-0.013790762
43	0xbe161fd1	-0.14660574
44	0x3dc1eb93	0.0946876
45	0xbb342a6a	-0.00274911
46	0xbdac18b8	-0.08403152
47	0xbd164113	-0.036683153
48	0x3decb96a	0.115588024
49	0xbdb3b408	-0.087745726
50	0x3d998e27	0.074978165
51	0xbcf73023	-0.03017432
52	0xbd25712a	-0.040391125
53	0x3d2b193b	0.04177211
54	0x3e2ff651	0.17183806
55	0x3d4fe64d	0.05075674
56	0xbe18e3c0	-0.1493063
57	0x3e177da1	0.14794017
58	0x3d93eef5	0.07223312
59	0xbd6c97ce	-0.05776196
60	0xb9cf6c19	-0.00039562656
61	0xbdd72dbb	-0.10506769
62	0x3e1ba061	0.15197898
63	0xbdaa9e4f	-0.08330976
64	0xbdb91ffb	-0.09039303
65	0x3df943b6	0.12171118
66	0x3cf4f431	0.029901596
67	0xbe0baae7	-0.13639413
68	0xbd5e586f	-0.054283556
69	0xbdea12e1	-0.11429382
70	0xbcb1bb46	-0.021695744
71	0xbd04b589	-0.032399688
72	0x3dde8996	0.10866086
73	0xbd519338	-0.05116579
74	0xbe7121b7	-0.23548017
75	0xbe25aff7	-0.16180407
76	0xba46bfe5	-0.0007581695
77	0x3d28ea05	0.041238803
78	0xbd623683	-0.055227768
79	0x3db0b66c	0.08628544
80	0xbe1dd1f5	-0.15412124
81	0x3e057126	0.13031444
82	0xbd778d8f	-0.060437735
83	0xbcd98cb3	-0.026556348
84	0xbde4cb07	-0.11171537
85	0xbbfd9385	-0.007738533
86	0x3e1d8ff7	0.1538695
87	0xbd422195	-0.047395308
88	0xbdecf93a	-0.11570974
89	0xbdb63b75	-0.08898059
90	0xbcd5f5e5	-0.026118228
91	0x3d02fd21	0.031979684
92	0x3e252175	0.16126044
93	0xbc5f2305	-0.013619189
94	0x3e1b4ede	0.15166804
95	0x3da8a64f	0.08234846
96	0xbda960d4	-0.082704216
97	0xbdceb0e6	-0.100923344
98	0x3cd78d34	0.026312448
99	0x3e095a1e	0.13413283
100	0x3d3f638f	0.046725806
101	0xbd2cfb2e	-0.04223173
102	0xbd0afb13	-0.03393085
103	0xbe5ea99d	-0.2174439
104	0x3e43898d	0.1909544
105	0xbcb6a939	-0.022297489
106	0x3ce0d477	0.027445061
107	0xbe851d50	-0.25998926
108	0x3e00528a	0.12531486
109	0x3e208a30	0.15677714
110	0xbd9b7dce	-0.07592355
111	0x3d9a3e7d	0.0753145
112	0xbe39e8cf	-0.18155216
113	0x3da48b28	0.080343544
114	0xbb8ef072	-0.0043621594
115	0xbdda2177	-0.10650914
116	0x3d6f985b	0.058494907
117	0xbca197c7	-0.019725693
118	0xbd35b37a	-0.044360615
119	0x3cc1d4fa	0.023661125
120	0x3e741c7f	0.23838995
121	0xbdc82f54	-0.09774652
122	0xbe43c6e5	-0.19118841
123	0x3da3b52a	0.07993539
124	0xbdc06202	-0.093936935
125	0x3e0c1ceb	0.13682906
126	0x3d168ed0	0.03675729
127	0x3cba0dbf	0.022711633
128	0xbdb45dec	-0.08806977
129	0xbdb758f7	-0.089525156
130	0x3d268741	0.040656332
131	0x3e15828e	0.14600584
132	0x3e24e04c	0.16101187
133	0x3df06066	0.117371365
134	0xbd23a57a	-0.039952733
135	0xbe2dff08	-0.16991818
136	0x3e53053c	0.20607466
137	0x3e06a3bd	0.13148399
138	0xbe0068a5	-0.12539919
139	0xbc9be296	-0.019028943
140	0xbdfe6c0c	-0.12422952
141	0xbddda248	-0.10821968
142	0x3e84cdb2	0.25938183
143	0x3e240093	0.16015844
144	0x3ce9b97c	0.028530829
145	0xbd86dd6e	-0.06585203
146	0x3deef52c	0.116678566
147	0x3d5e600a	0.05429081
148	0x3e2ba229	0.16761078
149	0xbddbd0d1	-0.10733188
150	0xbdd78d27	-0.105249695
151	0x3b7659bd	0.003759011
152	0x3d885b1a	0.06658001
153	0x3de49835	0.11161844
154	0x3d9a438f	0.07532417
155	0x3d830453	0.06397309
156	0xbe0c1377	-0.136793
157	0xbe04c2ab	-0.12964885
158	0xbd30f656	-0.043203674
159	0xbe0eba50	-0.1393826
160	0xbc746c4c	-0.014918398
161	0x3e1d3939	0.1535386
162	0x3db521b6	0.088443205
163	0xbd5a3de4	-0.05328168
164	0xbcab352a	-0.020899374
165	0x3e4735b1	0.19454075
166	0xbd9026f6	-0.07038681
167	0x3db47847	0.088120036
168	0xbe21ad8b	-0.15788858
169	0x3e112da4	0.14177567
170	0x3e3ffc7a	0.18748656
171	0xbe0c7a0b	-0.1371843
172	0x3ddbd418	0.10733813
173	0x3e0f4ef1	0.13994958
174	0x3dcb25b3	0.099193
175	0x3dbd33e6	0.092384145
176	0xbcbdf1b7	-0.023186548
177	0xbdaf0655	-0.085461296
178	0x3d4fcd9a	0.050733186
179	0x3d116def	0.03550523
180	0xbd99a405	-0.07501987
181	0x3d27dff8	0.040985078
182	0x3d57e7a9	0.052711163
183	0xbd4401a3	-0.047853123
184	0xbdd126aa	-0.10212453
185	0xbdcce2f0	-0.100042224
186	0xbc079e4b	-0.008277486
187	0x3e141ca4	0.1446405
188	0xbd7f3345	-0.062304754
189	0xbde23086	-0.11044411
190	0xbd8c4ea3	-0.06850936
191	0xbe182291	-0.14856936
192	0xbde77681	-0.113019
193	0xbc88c299	-0.016694354
194	0xbccc91af	-0.024971811
195	0x3d973a85	0.073842086
196	0xbcf0daf9	-0.02940129
197	0xbc7d732a	-0.015469352
198	0x3ac4f17d	0.0015025582
199	0x3d4a4a50	0.049387276
200	0x3da7acc0	0.08187246
201	0x3c8ea285	0.01741148
202	0x3d0c1621	0.03420079
203	0xbc8ca19d	-0.017166907
204	0xbdb94814	-0.09046951
205	0x3d92d3a5	0.07169274
206	0xbdccf64d	-0.10007916
207	0x3d9763dd	0.07392094
208	0xbe23a30e	-0.15980169
209	0xbe596913	-0.21231489
210	0xbd955f86	-0.0729361
211	0xbdb823f1	-0.0899123
212	0x3ddf20ea	0.1089495
213	0xbe6d7ff1	-0.23193337
214	0x3c055b77	0.008139483
215	0xbc3faf91	-0.011699573
216	0x3e2c78c8	0.1684295
217	0x3a41971c	0.0007384883
218	0xbe1636fe	-0.14669415
219	0x3de9e989	0.114214964
220	0xbe3d982f	-0.18515085
221	0x3c04bd25	0.008101736
222	0x3d1aded4	0.03781016
223	0x3e3e0bdf	0.18559216
224	0x3e225cf3	0.1585577
225	0xbd48417f	-0.048890587
226	0x3dd99c22	0.10625483
227	0xbe42e154	-0.19031268
228	0xbe35f1c3	-0.17768006
229	0xbcaee4a4	-0.021349259
230	0xbcae363e	-0.021266099
231	0xbe20e170	-0.15710998
232	0x3d827783	0.06370451
233	0x3d29f5cd	0.04149418
234	0x3d46f1aa	0.048570313
235	0xbd628317	-0.0553008
236	0xbb8a37fd	-0.0042181
237	0xbdce1ae6	-0.10063724
238	0xbdd106f4	-0.10206404
239	0xbc8a9575	-0.01691697
240	0xbdeb01a2	-0.11474921
241	0x3e117a24	0.14206749
242	0xbddc6965	-0.1076229
243	0xbd43e644	-0.04782702
244	0xbda7443e	-0.08167313
245	0xbdc5a1fa	-0.09650035
246	0x3d88f771	0.06687821
247	0x3dbd5ecb	0.09246596
248	0xbdc36c99	-0.09542198
249	0x3d5977e0	0.053092837
250	0xbdee7bf9	-0.1164474
251	0x3e204440	0.15651035
252	0xbd02e8e9	-0.0319604
253	0x3e17572d	0.14779349
254	0x3e1f418a	0.15552345
255	0xbbf23317	-0.0073913443

multi_head_attention.attn1.in_proj_bias f4 [96]
0	0xbbc5c79c	-0.006035758
1	0xbc93ffba	-0.018066276
2	0x3e87e790	0.26543856
3	0x3ca8b68a	0.020594854
4	0x3e977bdf	0.29586694
5	0x3e5b3786	0.214079
6	0x3ebc9aa3	0.36836728
7	0x3e63d210	0.22248101
8	0x3e00943d	0.12556548
9	0xbe504436	-0.2033852
10	0x3e6f7689	0.23385061
11	0x3cc1e014	0.02366642
12	0x3dd61118	0.10452479
13	0xbe2a632c	-0.16639394
14	0xbe43f3fb	-0.1913604
15	0xbe7a669b	-0.24453203
16	0x3e9ce170	0.30640745
17	0x3e29696f	0.16544126
18	0x3e5fce0e	0.21855947
19	0x3e42aa93	0.19010381
20	0xbe97b8e5	-0.2963325
21	0x3e113e7c	0.14183992
22	0x3e00e3c1	0.12586881
23	0x3e1d2769	0.15347065
24	0x3dbab72d	0.09116969
25	0x3dd7aafd	0.1053066
26	0x3d814703	0.063123725
27	0x3daaedd6	0.08346145
28	0xbd332710	-0.043738425
29	0xbe0be03a	-0.13659754
30	0xbda815c1	-0.08207274
31	0x3e85018d	0.25977746
32	0x3c766c34	0.015040446
33	0x3cb983fd	0.022645945
34	0xbac4ee37	-0.0015024607
35	0xbc3fb469	-0.011700728
36	0xbd06ac74	-0.032879308
37	0xbb89f199	-0.004209709
38	0xbb95ee4a	-0.0045755254
39	0x3c07b28b	0.008282314
40	0x3c95b6b2	0.018275592
41	0xbd0ab0d6	-0.03386005
42	0xbc8f62f4	-0.01750324
43	0xbca62eb2	-0.020285938
44	0x3c7ebce0	0.015547961
45	0xbb486af5	-0.003058133
46	0x3d16bd80	0.036801815
47	0xbd0b6724	-0.03403391
48	0xbb4f8dd8	-0.0031670239
49	0x3c94fa37	0.018185718
50	0x3bc89b14	0.0061220024
51	0x3b4cc52b	0.003124545
52	0x3bf45494	0.0074563716
53	0x3ca630b7	0.0202869
54	0x3cb531eb	0.02211853
55	0x3a696cb3	0.0008904442
56	0xbc55aae0	-0.013041228
57	0x3e87e4dc	0.26541793
58	0x3e3af007	0.18255626
59	0x3e74c9ab	0.23905055
60	0xbe33fa4f	-0.17575954
61	0xbe884491	-0.26614812
62	0xbe695494	-0.2278617
63	0x3e57199c	0.21005863
64	0x3e9d128e	0.3067822
65	0xbe2ef470	-0.17085433
66	0xbd424889	-0.047432456
67	0xbd021b9f	-0.031764623
68	0xbe98623d	-0.2976245
69	0x3db3ca1b	0.08778783
70	0x3ea9997e	0.33124918
71	0x3e0c577a	0.13705245
72	0x3e99313d	0.29920378
73	0xbeab8be9	-0.3350518
74	0x3e3720c7	0.17883597
75	0xbec149df	-0.37751672
76	0xbd4b1aa9	-0.049585972
77	0xbe465812	-0.19369534
78	0xbe7f3da5	-0.2492586
79	0xbdbc38f9	-0.09190554
80	0x3e6525ac	0.22377652
81	0x3e88e30f	0.26735732
82	0xbea03b30	-0.31295156
83	0xbe0e0a5b	-0.13871138
84	0x3e101d95	0.14073785
85	0x3e1abe1b	0.15111582
86	0xbe64206b	-0.22277991
87	0x3e397860	0.18112326
88	0x3ea69d0d	0.32541695
89	0xbe106d4d	-0.14104195
90	0x3deed085	0.11660866
91	0xbd23f8db	-0.04003225
92	0xbd7cc7c3	-0.061713945
93	0xbe20e6ee	-0.15713093
94	0xbe4aac5d	-0.19792314
95	0xbe569d85	-0.20958526

multi_head_attention.attn1.out_proj.weight f4 [32, 32]
0	0x3cc6be6e	0.024260726
1	0x3e1d8388	0.15382206
2	0x3e544930	0.20731044
3	0x3e5d8d27	0.21635877
4	0x3ccea6fb	0.025226107
5	0xbe8e47eb	-0.27789244
6	0xbd92b59f	-0.07163548
7	0x3e292986	0.16519746
8	0xbdd44287	-0.103642516
9	0xbe25db32	-0.16196898
10	0xbb74e2eb	-0.00373667
11	0x3d7976f8	0.060904473
12	0x3e05558f	0.1302092
13	0xbd9f51a3	-0.07779243
14	0xbe206bce	-0.15666124
15	0xbcb21c63	-0.021742051
16	0x3d818578	0.06324285
17	0x3d2c95aa	0.04213492
18	0x3cae3473	0.021265244
19	0xbdd13c06	-0.10216527
20	0x3dd48476	0.103768274
21	0x3e25fcde	0.16209742
22	0xbdea41dd	-0.11438344
23	0xbdefeb21	-0.11714769
24	0xbe3a66b8	-0.18203247
25	0xbc319a1c	-0.010839965
26	0x3e0d7072	0.13812426
27	0xbe28f8ec	-0.16501206
28	0x3c2bfa95	0.010496755
29	0x3d5fbe74	0.05462499
30	0xbd967f10	-0.07348454
31	0x3dd9a06b	0.106263004
32	0xbd3052c3	-0.043047678
33	0x3c6793aa	0.014134327
34	0x3dda7d41	0.106684215
35	0xbe0a085e	-0.13479754
36	0x3ddbe154	0.10736337
37	0xbd3781a7	-0.04480138
38	0x3c49147e	0.012272952
39	0xbde34170	-0.110964656
40	0xbbc30747	-0.0059517953
41	0xbabcdf1a	-0.0014409751
42	0x3de52043	0.11187794
43	0x3dbe6a42	0.09297611
44	0xbe3e0e97	-0.18560253
45	0x3e1b9e76	0.15197167
46	0xbe1cc892	-0.15310887
47	0x3d6cbbd9	0.057796333
48	0xbdedd29b	-0.116124354
49	0xbd7e399f	-0.06206667
50	0xbce5cda5	-0.02805216
51	0x3dd47ca0	0.10375333
52	0xbc8a6791	-0.016895087
53	0x3d187396	0.037219606
54	0x3e68dfc5	0.22741611
55	0xbe62d9ce	-0.22153398
56	0x3e47a1d9	0.19495334
57	0x3d0a5e07	0.033781078
58	0x3cab82a3	0.020936316
59	0xbdb4e14a	-0.08832033
60	0x3c75129d	0.014958051
61	0x3d7b292e	0.06131857
62	0x3dd5795c	0.10423538
63	0xbe2ca02a	-0.16857973
64	0x3ddc1dc0	0.10747862
65	0xbe06809a	-0.13134995
66	0x3e07c2ac	0.13257855
67	0x3df9b6a4	0.12193039
68	0xbe7874db	-0.24263327
69	0xbea91917	-0.33026955
70	0x3e0d6596	0.13808283
71	0x3d5b9dca	0.053617276
72	0x3d74a487	0.059727218
73	0xbdb6d5a3	-0.08927467
74	0x3dd5a765	0.104323186
75	0x3dace718	0.08442515
76	0xbc77861e	-0.01510766
77	0xbe43e8a3	-0.19131713
78	0xbe6560b2	-0.22400168
79	0xbde61971	-0.11235321
80	0x3dc3549b	0.095376216
81	0xbe199f2e	-0.15002128
82	0xbcf93b81	-0.030423881
83	0xbd83eeaa	-0.06442006
84	0xbc6d7d7a	-0.014495248
85	0x3e8db5ce	0.27677768
86	0x3d2ab7a0	0.041679025
87	0x3da22770	0.07917678
88	0x3e0c0dd7	0.13677154
89	0x3d9274ef	0.071512096
90	0xbe354727	-0.17702924
91	0xbe16e9c1	-0.14737608
92	0x3d92c02d	0.07165561
93	0xbd72bd2b	-0.059262436
94	0xbe2f2e53	-0.17107515
95	0xbdc3efe8	-0.09567243
96	0x3cb5669f	0.02214366
97	0xbdb96ee0	-0.09054351
98	0x3e3c1ad2	0.18369606
99	0x3d9ed56e	0.07755552
100	0xbe369bc8	-0.17832863
101	0xbd920248	-0.07129341
102	0x3e844075	0.25830427
103	0x3e2141c5	0.15747745
104	0x3e7bf2c4	0.24604326
105	0x3e7bb1e9	0.24579586
106	0xbe5461e9	-0.20740475
107	0xbe89bd14	-0.26902068
108	0xbdeef32e	-0.116674766
109	0xbd0cddd5	-0.034391243
110	0x3e01e249	0.12683977
111	0xbe2a249f	-0.16615532
112	0x3e1b1501	0.15144731
113	0x3df07e30	0.11742818
114	0xbe82e975	-0.2556874
115	0xbd16c9b1	-0.03681344
116	0xbd83c3d4	-0.064338356
117	0x3d496f2f	0.0491783
118	0xbe11c982	-0.14237025
119	0x3df9206b	0.12164386
120	0xbdbc5471	-0.091957934
121	0xbe8ec328	-0.27883267
122	0xbe96aea9	-0.2943013
123	0xbd1779e2	-0.03698147
124	0xbe33bc6a	-0.17552343
125	0x3dc68496	0.096932575
126	0xbdee5690	-0.11637604
127	0xbde8654a	-0.11347444
128	0x3cf7d015	0.030250588
129	0x3db6f4ff	0.08933448
130	0xbe84e980	-0.25959396
131	0xbd8c3efe	-0.06847952
132	0x3e9b0cc2	0.3028317
133	0x3e8db3aa	0.27676135
134	0xbe61fe99	-0.22069778
135	0xbe30b25b	-0.17255537
136	0xbec5b549	-0.38614872
137	0xbe4e562c	-0.2015006
138	0x3eb65fea	0.35620052
139	0x3eb96fec	0.36218202
140	0x3cc42d01	0.02394724
141	0x3d6af949	0.057366643
142	0x3d204c13	0.03913505
143	0x3e91542f	0.2838454
144	0x3d30e201	0.043184284
145	0xbe444aae	-0.19169113
146	0x3e200e98	0.15630567
147	0x3c929d89	0.017897384
148	0x3e38ff59	0.18066157
149	0x3c187774	0.009305824
150	0x3dae4963	0.08510091
151	0xbe677468	-0.22602999
152	0xbe0441bc	-0.129157
153	0x3e4227e1	0.18960525
154	0x3e4ee63b	0.20205013
155	0xbd43098b	-0.047616523
156	0x3bbde1f3	0.0057947575
157	0x3c021d62	0.007941576
158	0x3e0f7a00	0.14011383
159	0xbb978e94	-0.004625151
160	0x3ddcaaad	0.10774741
161	0xbdb82f68	-0.08993417
162	0x3cda0ad9	0.0266165
163	0x3dea4dbd	0.11440609
164	0x3dca2b25	0.098715104
165	0x3df82cc6	0.12117915
166	0x3e3c46f9	0.18386449
167	0xbe2bdbc4	-0.16783053
168	0x3cb7aea7	0.022422148
169	0x3d3c8803	0.04602815
170	0x3e54aa20	0.20768023
171	0x3e3ebb87	0.18626224
172	0xbcb2fc36	-0.02184878
173	0x3e51463a	0.20436946
174	0xbd703ddc	-0.058652744
175	0xbdcf3a73	-0.1011857
176	0xbdeefa36	-0.11668818
177	0xbcd63d0f	-0.026152162
178	0x3e3de591	0.18544604
179	0x3e5c6a6e	0.21524975
180	0x3e779fed	0.241821
181	0xbe05dc84	-0.13072401
182	0xbe2488e2	-0.16067842
183	0x3a423608	0.0007408564
184	0x3dbfce95	0.09365574
185	0xbdb7e490	-0.08979142
186	0x3d7a3069	0.061081324
187	0xbe49ac5f	-0.1969466
188	0xbe37dcc6	-0.17955312
189	0x3d34c85c	0.04413639
190	0x3d9cddab	0.07659467
191	0x3e81c1a8	0.2534306
192	0xbcd2ead3	-0.025746739
193	0xbe191d41	-0.14952566
194	0x3e97b9e9	0.29634026
195	0x3e3817f7	0.17977892
196	0x3d380d76	0.044934712
197	0xbdfa3554	-0.12217203
198	0x3d1d0612	0.038335867
199	0xbae39390	-0.0017362703
200	0x3e4ee847	0.20205794
201	0xbcb05424	-0.021524496
202	0xbe00fafd	-0.12595744
203	0xbd9d63d9	-0.0768506
204	0xbdfbd208	-0.1229592
205	0xbda031de	-0.078220114
206	0x3d09123f	0.033464666
207	0xbe23288c	-0.15933436
208	0x3e516d0b	0.20451753
209	0x3e4340db	0.19067709
210	0x3cc99114	0.024605311
211	0x3d0b0d2d	0.033948112
212	0x3dc0f12d	0.09421001
213	0xbe13c65d	-0.14431138
214	0xbe4c1634	-0.19930345
215	0x3e2dc6ef	0.16970418
216	0xbd63b218	-0.055589765
217	0xbe701961	-0.23447181
218	0xbe45f58d	-0.19331951
219	0x3c7e98a3	0.015539321
220	0x3d3379e2	0.04381741
221	0xbdb44898	-0.08802909
222	0x3de8a0da	0.11358805
223	0x3e5e6154	0.21716815
224	0x3de7d4b3	0.11319866
225	0xbe5382cb	-0.20655362
226	0x3de34de1	0.110988386
227	0xbd2713af	-0.040790256
228	0x3dd8b538	0.1058144
229	0xbc2a7e01	-0.010406018
230	0x3dd2fa22	0.10301615
231	0x3df69563	0.12040212
232	0xbd830577	-0.06397527
233	0xbe836ccf	-0.25668952
234	0x3d7040b0	0.05865544
235	0xbd5555a9	-0.052083645
236	0xbd8f8a2d	-0.07008777
237	0xbe220644	-0.15822703
238	0xbe3f12af	-0.18659471
239	0x3c9d41d0	0.01919642
240	0x3e8899ab	0.2667974
241	0xbb6ccee3	-0.0036134056
242	0xbdf2fa1b	-0.1186411
243	0x3da688b1	0.081315406
244	0x3dbcc612	0.092174664
245	0x3e1d68b6	0.15371975
246	0xbd240149	-0.040040288
247	0x3e0e59dd	0.13901468
248	0xbe165c10	-0.14683557
249	0xbe86c46f	-0.26321742
250	0xbcb9a1a1	-0.022660078
251	0x3b82ef55	0.0039958158
252	0x3deebb46	0.11656813
253	0x3b1c75e0	0.002387397
254	0xbdcaab2d	-0.098959304
255	0x3dbfdfa5	0.09368829

multi_head_attention.attn1.out_proj.bias f4 [32]
0	0x3dbcb43a	0.09214063
1	0xbe4190dd	-0.18902917
2	0x3e99692f	0.2996306
3	0x3e9a7bd7	0.30172607
4	0xbe6b25e7	-0.22963677
5	0xbe8780dd	-0.26465502
6	0x3e91ba2d	0.28462353
7	0x3e9bf276	0.3045842
8	0xbea3b198	-0.3197143
9	0x3e659125	0.2241865
10	0x3e9a3eee	0.30126137
11	0xbebd29ae	-0.36945862
12	0x3e9098fc	0.28241718
13	0xbe8828ed	-0.26593724
14	0x3e7c0f72	0.24615267
15	0xbeb8f70a	-0.36125976
16	0x3e205533	0.15657501
17	0x3e97ab3f	0.29622838
18	0xbea1ffc6	-0.31640452
19	0xbe5f18b5	-0.21786769
20	0xbe811ca4	-0.25217164
21	0xbdaf1a06	-0.085498855
22	0xbe8b6e23	-0.27232465
23	0xbeb16a5b	-0.34651455
24	0x3ef377e2	0.475524
25	0x3e792992	0.24332264
26	0x3e8dcc11	0.27694753
27	0x3e1ae5ba	0.15126696
28	0xbd953b3a	-0.07286687
29	0xbe7f47d1	-0.2492974
30	0xbe8c68ae	-0.27423614
31	0x3e6d2ca2	0.23161557

multi_head_attention.attn2.in_proj_weight f4 [96, 32]
0	0xbdf3d284	-0.11905387
1	0x3d9de2f1	0.07709301
2	0xbe7edc80	-0.24888802
3	0x3c5cedde	0.013484446
4	0x3e6fff47	0.23437224
5	0x3e74acda	0.23894063
6	0xbe860dd2	-0.2618242
7	0xbe2f6b81	-0.17130853
8	0x3ddecda5	0.10879067
9	0xbeb761de	-0.35816854
10	0xbdc2d780	-0.095137596
11	0xbdc5f6fe	-0.09666251
12	0xbe883d93	-0.26609477
13	0x3dc283c4	0.094977885
14	0xbe701e48	-0.23449051
15	0xbdbf7c4e	-0.09349881
16	0x3e646739	0.22305001
17	0xbe27b63e	-0.16378114
18	0xbc99aa0f	-0.018757848
19	0xbce61842	-0.028087739
20	0xbcd5c2cf	-0.026093869
21	0x3ebd18b9	0.36932924
22	0x3e3da2ca	0.1851913
23	0xbe2060b1	-0.15661885
24	0x3e12b37a	0.14326277
25	0xbe294df8	-0.16533649
26	0xbde55f6c	-0.11199841
27	0xbe1e3dd3	-0.15453272
28	0xbe06ccff	-0.13164137
29	0x3d14187f	0.036156174
30	0xbcbfc1ea	-0.023407895
31	0xbe8ec877	-0.27887318
32	0xbebcd929	-0.3688443
33	0x3e4ccfec	0.20001191
34	0x3e43bd21	0.19115116
35	0xbd754626	-0.059881352
36	0x3de21405	0.11038975
37	0xbe15e4fd	-0.14638133
38	0xbda24f79	-0.079253145
39	0x3adc4dfc	0.0016807909
40	0xbd4ead75	-0.05045839
41	0xbe033b2d	-0.12815543
42	0x3e8257e0	0.25457668
43	0xbe9102a5	-0.2832233
44	0x3e08bf84	0.13354307
45	0x3d6c1c1c	0.057643995
46	0x3b73f55e	0.0037225108
47	0xbd803802	-0.06260683
48	0x3e64340a	0.22285476
49	0x3e6be1b4	0.23035318
50	0xbc21d93e	-0.009878455
51	0xbc8c111f	-0.017098008
52	0x3d0da55f	0.03458154
53	0x3ee2d886	0.4430582
54	0xbdaa1508	-0.08304793
55	0xbdd85986	-0.1056395
56	0x3f168099	0.58789974
57	0x3aded446	0.0017000518
58	0x3e154888	0.1457845
59	0xbe770318	-0.24122274
60	0xbdfe8f12	-0.12429632
61	0x3e1b807f	0.15185736
62	0xbe5e1ce1	-0.21690704
63	0xbecc569c	-0.39909828
64	0xbe884596	-0.2661559
65	0x3eb73062	0.357791
66	0xbe337c0d	-0.1752779
67	0xb9da54b5	-0.00041643312
68	0x3e59094c	0.21194953
69	0x3cc926aa	0.02455457
70	0xbe85b122	-0.26111704
71	0xbea467ba	-0.32110387
72	0x3e1540a1	0.14575435
73	0xbe056c3c	-0.1302957
74	0xbd32fa1b	-0.04369555
75	0x3e2e9b3d	0.17051406
76	0xbe4ed834	-0.20199662
77	0x3e668e42	0.22515205
78	0xbdbac5fe	-0.09119795
79	0xbdbe1fd6	-0.09283416
80	0xbcb545b6	-0.022127967
81	0x3d4b151b	0.049580675
82	0x3ea01ee3	0.31273565
83	0x3d45d3d0	0.048297703
84	0x3d3440e6	0.044007204
85	0x3e97abd6	0.29623288
86	0x3db1e3b7	0.08686011
87	0x3d07799f	0.03307497
88	0xbd420685	-0.0473695
89	0xbe025159	-0.12726344
90	0xbda5995d	-0.08085892
91	0xbba6ee6b	-0.0050943396
92	0x3df77620	0.120830774
93	0x3ec5d0c9	0.38635853
94	0x3df3dbbc	0.119071454
95	0xbeca23db	-0.3948048
96	0xbe745db3	-0.23863868
97	0x3e2f817b	0.17139237
98	0xbe52ad69	-0.20573963
99	0xbaf18213	-0.0018425606
100	0x3e49a0c2	0.1969023
101	0x3e7f054c	0.24904364
102	0xbe896933	-0.26838073
103	0xbea282d6	-0.31740445
104	0xbe140aa1	-0.1445718
105	0xbd8a5102	-0.06753732
106	0xbe95135b	-0.2911633
107	0x3d38f86a	0.04515878
108	0xbe996763	-0.2996169
109	0x3d4f8ea8	0.050673157
110	0x3a55a4a4	0.00081498385
111	0xbe06d06d	-0.13165446
112	0x3d515754	0.051108673
113	0xbe125b41	-0.14292623
114	0x3e8fa219	0.28053358
115	0x3d7b236a	0.06131307
116	0x3ea56a40	0.32307625
117	0x3eae5c00	0.34054565
118	0x3e9b822b	0.30372748
119	0x3de52a6f	0.11189734
120	0x3c428bd9	0.011874163
121	0x3e0654fa	0.13118353
122	0xbc018e89	-0.007907518
123	0xbe84b613	-0.25920162
124	0x3e0e0675	0.1386965
125	0x3e87a170	0.26490355
126	0x3df6c6b5	0.12049619
127	0xbeb88055	-0.3603541
128	0x3cd3a336	0.025834661
129	0xbe4b582d	-0.19857855
130	0x3e373af4	0.17893583
131	0x3d708bd7	0.05872711
132	0x3da447a8	0.0802148
133	0xbdf2e374	-0.118597895
134	0x3ca850d0	0.020546347
135	0x3e0bfbb6	0.13670239
136	0x3cde137f	0.027108906
137	0x3b119d3d	0.0022218965
138	0xbc5274f3	-0.012845266
139	0xbe7789da	-0.2417368
140	0x3e934639	0.28764513
141	0xbe3c875c	-0.1841101
142	0xbc4d6807	-0.012537009
143	0xbdf991d9	-0.12186021
144	0x3e105386	0.14094362
145	0x3c398f05	0.011325602
146	0xbe9fe71d	-0.31231013
147	0xbd0dedd6	-0.034650646
148	0xbe8127ea	-0.25225765
149	0x3dac3110	0.084077954
150	0x3d4e650d	0.05038934
151	0xbe1a7e9e	-0.15087363
152	0xbcf9a865	-0.030475805
153	0x3dabeac1	0.08394385
154	0x3ce7f78a	0.028316278
155	0x3e587f02	0.211422
156	0xbdd1e021	-0.10247827
157	0xbec38970	-0.38190794
158	0xbd900b0f	-0.07033359
159	0x3e600b4f	0.21879314
160	0x3e0aae7c	0.13543123
161	0xbe54dbff	-0.20787047
162	0xbd004c34	-0.031322673
163	0x3e9fb597	0.3119323
164	0xbdb71607	-0.08939748
165	0xbe95681b	-0.2918099
166	0x3d60cc2f	0.054882225
167	0x3c265983	0.010153177
168	0xbdddffa4	-0.10839775
169	0x3ea21b1c	0.31661308
170	0x3cefd9d1	0.029278668
171	0xbe718d48	-0.23589051
172	0x3d91f399	0.07126541
173	0xbd94297d	-0.07234476
174	0x3e7f371c	0.24923366
175	0xbe64a818	-0.22329748
176	0xbe082056	-0.13293585
177	0x3ea81f3d	0.32836333
178	0xbda86b4d	-0.08223591
179	0xbe5611c1	-0.2090521
180	0xbe099d5a	-0.13438931
181	0xbe04e00d	-0.12976094
182	0x3db046a7	0.08607226
183	0x3ca7fbff	0.020505903
184	0x3dfa5f09	0.12225158
185	0xbd935b5c	-0.0719516
186	0xbd4a703f	-0.049423452
187	0x3e47dd52	0.19518021
188	0xbe0bf32e	-0.13666984
189	0xbc193b30	-0.00935249
190	0xbdc4fe1b	-0.09618779
191	0x3ea6d687	0.32585546
192	0xbd8ee22b	-0.06976732
193	0xbe8aa934	-0.27082217
194	0x3e1c2517	0.15248524
195	0x3ca619d3	0.020275986
196	0xbca20ea2	-0.019782368
197	0xbe6d81fd	-0.23194118
198	0x3e3a67c2	0.18203643
199	0x3e356884	0.17715651
200	0x3dd71cf3	0.105035685
201	0x3dbf62fd	0.093450524
202	0x3cac3d36	0.021025281
203	0xbe1d25e3	-0.15346484
204	0x3d54247d	0.05179261
205	0xbe812204	-0.25221264
206	0x3cd84a45	0.026402602
207	0xbd28a9da	-0.041177608
208	0xbd84626c	-0.06464085
209	0x3e1da0cf	0.15393375
210	0xbe790adb	-0.24320547
211	0x3c885a0c	0.0166445
212	0xbe55807a	-0.20849791
213	0x3d744a41	0.059641127
214	0xbe3d639c	-0.18495029
215	0xbe91cf5d	-0.28478518
216	0x3e63e8ac	0.22256726
217	0x3d825dd0	0.063655496
218	0xbdb61abe	-0.088918194
219	0x3d17d832	0.037071414
220	0xbdc49649	-0.09598977
221	0xbe9d1666	-0.3068115
222	0xbe720727	-0.23635541
223	0x3e188cb2	0.14897421
224	0x3d74b9f4	0.05974765
225	0xbeadd263	-0.33949575
226	0x3de1bcda	0.11022349
227	0x3e112668	0.14174807
228	0xbde10dfa	-0.10988994
229	0xbe1b235f	-0.15150212
230	0x3e3e77e1	0.18600418
231	0x3e0e36ba	0.13888064
232	0x3daaf522	0.083475366
233	0x3e855a15	0.2604529
234	0x3ea47fa4	0.32128632
235	0x3dece6ba	0.11567445
236	0x3e8cfc4b	0.27536234
237	0xbe7b11c8	-0.24518502
238	0x3e40f982	0.1884518
239	0x3e28a846	0.16470441
240	0x3defa428	0.11701232
241	0x3d92af4d	0.07162342
242	0xbdc1f8ac	-0.094712585
243	0x3d64e9c1	0.055886988
244	0xbe4f258a	-0.20229164
245	0xbe94b901	-0.29047397
246	0xbe9e03b4	-0.308622
247	0x3d1a2ffd	0.03764342
248	0xbd073e68	-0.0330185
249	0x3e446588	0.19179356
250	0xbe84b16e	-0.25916618
251	0x3e310aa4	0.17289215
252	0xbe82b662	-0.25529772
253	0xbe3f779e	-0.18697974
254	0x3dc6d4e2	0.09708573
255	0x3eb529a5	0.35383335

multi_head_attention.attn2.in_proj_bias f4 [96]
0	0xbe6b8a6a	-0.2300202
1	0xbd9b0c8f	-0.07570755
2	0xbe8e90f6	-0.2784497
3	0xbe88bb1e	-0.2670526
4	0x3e8734b1	0.26407388
5	0x3e8d67d9	0.27618292
6	0x3e788e15	0.2427295
7	0x3e7a803d	0.24462982
8	0xbe116ff6	-0.14202866
9	0xbdc15377	-0.09439748
10	0x3df02e78	0.11727613
11	0x3b9c9159	0.004778069
12	0xbdd0c3e3	-0.101936124
13	0xbe4985cc	-0.19679946
14	0xbe025549	-0.12727846
15	0xbdfee514	-0.12446037
16	0x3da6c02f	0.08142125
17	0x3e55de9f	0.20885704
18	0x3e2d8552	0.16945389
19	0xbe5da2ec	-0.21644181
20	0xbe2694ff	-0.16267775
21	0xbea9b95f	-0.3314924
22	0xbe49fd4e	-0.19725534
23	0xbea4aedd	-0.3216466
24	0xbe87154b	-0.26383433
25	0xbea168f0	-0.31525373
26	0x3ec141c9	0.37745503
27	0xbea6f582	-0.32609183
28	0xbeca0cca	-0.39462882
29	0x3eb1e18f	0.347424
30	0xbeb8ce88	-0.3609507
31	0x3ea85bdd	0.32882586
32	0xbd9e3a21	-0.07725931
33	0xbd48cf13	-0.049025606
34	0xbdb20950	-0.086931825
35	0xbd1f2001	-0.03884888
36	0x3d995f69	0.07488901
37	0x3d459514	0.048237875
38	0x3d916d9c	0.071009845
39	0x3d46b9f3	0.04851718
40	0xbb810403	-0.003937246
41	0xbb00c1e1	-0.001964681
42	0xba37b321	-0.0007007588
43	0xbc295288	-0.010334618
44	0xb94748eb	-0.00019005283
45	0xbadff5a6	-0.0017086759
46	0x3c14ec8d	0.009089601
47	0x3c99166d	0.018687451
48	0x3df00eb5	0.11721555
49	0x3dc94c8f	0.098290555
50	0x3dbb81fb	0.09155651
51	0x3d0b6cca	0.034039296
52	0xbda58f07	-0.08083921
53	0xbda70b74	-0.081564814
54	0xbdc83414	-0.09775558
55	0xbdad3dfb	-0.084590875
56	0xbd03e3db	-0.03219972
57	0xbc5dcf0b	-0.013538132
58	0x3abb10cb	0.0014271972
59	0xbb964089	-0.00458533
60	0xbd2f3af9	-0.04278085
61	0xba8856ad	-0.0010401808
62	0x3cbc88d9	0.023014473
63	0x3c9dd4b9	0.019266473
64	0x3c9aaac0	0.018880248
65	0x3c9f08d8	0.019413397
66	0xbc2346be	-0.009965597
67	0x3c57a004	0.013160709
68	0x3bb2c866	0.0054560183
69	0x3b80411e	0.0039140126
70	0xbc0ce06a	-0.008598426
71	0x3cae113d	0.021248454
72	0x3aa678ea	0.001270083
73	0x3b754a71	0.0037428404
74	0x3af392ab	0.0018583139
75	0x3bb445c8	0.0055014826
76	0xbb9d81ed	-0.004806748
77	0x3cbc3e4f	0.02297893
78	0x3bb02112	0.005375036
79	0x3c7a5630	0.015279338
80	0x3c88ace1	0.016683998
81	0x3c2b73ae	0.010464592
82	0x3d0a349c	0.03374158
83	0x3cc0b0b8	0.023521766
84	0x3d099113	0.03358562
85	0x3c7a676b	0.015283446
86	0x3a8bc45e	0.001066338
87	0x3b1c910a	0.002389016
88	0xbc6bb3c2	-0.014386119
89	0xbaeba458	-0.0017978055
90	0xbcf29418	-0.029611632
91	0xbc8bfa54	-0.01708714
92	0xbbe1d478	-0.0068917833
93	0x3c81b9e5	0.015835712
94	0xbc3bfca0	-0.011473805
95	0x3b250aa6	0.002518335

multi_head_attention.attn2.out_proj.weight f4 [32, 32]
0	0x3e0ad19a	0.13556519
1	0x3e90a957	0.28254196
2	0xbcf65527	-0.0300699
3	0x3d93ec1e	0.0722277
4	0x3d8d9c7a	0.06914611
5	0x3d3c2a4b	0.04593877
6	0x3ccb19d3	0.024792587
7	0xbe1fd152	-0.15607193
8	0x3d76da65	0.06026687
9	0x3d7f5ab6	0.062342368
10	0x3e0ee5e6	0.13954887
11	0xbda4fab5	-0.08055631
12	0x3d3f33db	0.046680313
13	0xbc913325	-0.017724583
14	0xbdc7901c	-0.097442836
15	0x3dd54c36	0.10414927
16	0xbe450ce3	-0.19243197
17	0xbdbc0fa1	-0.091826685
18	0xbdf71929	-0.12065346
19	0xbe8cd93f	-0.27509496
20	0xbe273899	-0.16330184
21	0xbdb55b0e	-0.08855258
22	0x3dd45697	0.10368078
23	0xbdcbcb67	-0.09950905
24	0x3e2466f2	0.16054896
25	0xbc1c0ced	-0.009524566
26	0x3e16eb8f	0.14738296
27	0x3d936a62	0.07198025
28	0x3d1ec26e	0.03875964
29	0x3aae9e1b	0.0013322266
30	0x3c31b13e	0.0108454805
31	0xbde4edef	-0.11178195
32	0x3e2c8647	0.16848098
33	0x3e37aefa	0.17937842
34	0xbc835e34	-0.01603613
35	0x3cef9e4a	0.029250283
36	0x3d8d9699	0.0691349
37	0xbba8f6e5	-0.0051563852
38	0x3c43c99c	0.011949923
39	0xbe0bf670	-0.13668227
40	0x3da7c0a0	0.08191037
41	0xbbb5af2c	-0.0055445638
42	0x3ddebbeb	0.10875686
43	0xbd4d2a06	-0.050088905
44	0xbbc48abf	-0.005997985
45	0xbd93a746	-0.07209639
46	0x3d59bfc3	0.053161394
47	0x3e40f1b3	0.18842201
48	0xbe3d8a0c	-0.18509692
49	0xbe13e157	-0.14441429
50	0xbda2e47e	-0.07953738
51	0xbe503b1c	-0.20335048
52	0xbe7075e5	-0.23482473
53	0xba843bbc	-0.0010088603
54	0x3d8b26fc	0.06794545
55	0x3d3daee4	0.046309367
56	0x3cb20520	0.02173096
57	0xbd8455b8	-0.06461662
58	0x3e8a250b	0.26981387
59	0x3dddea26	0.10835676
60	0x3da5ac12	0.080894604
61	0xbdb67a29	-0.08910019
62	0xbc686b79	-0.01418578
63	0xbe19736a	-0.14985433
64	0xbe1c51f8	-0.15265644
65	0xbe5fa08a	-0.21838585
66	0xbd0dd817	-0.034629907
67	0xbd0b9446	-0.03407695
68	0x3bfb4c3f	0.0076690014
69	0x3d0adfd2	0.033904858
70	0x3d04a98f	0.032388266
71	0xbdc0566d	-0.093914844
72	0x3c804a0c	0.015660308
73	0xbcf3f909	-0.029781835
74	0xb917153c	-0.00014408393
75	0xbd73a98a	-0.059487857
76	0xbcd4bd87	-0.02596928
77	0xbdab915f	-0.08377337
78	0x3c7985d1	0.015229658
79	0xbd411a8f	-0.04714447
80	0xbd2e88d6	-0.042610966
81	0x3e8d0fcc	0.27551115
82	0xbcf2159c	-0.02955132
83	0x3e7c7f3f	0.24657916
84	0x3e6fcc1e	0.23417708
85	0xbd0c78e2	-0.03429497
86	0x3d3025b7	0.043004718
87	0xbc1a2ff3	-0.009410846
88	0xbe6bfe05	-0.2304612
89	0x3c72582d	0.014791531
90	0xbe03b2ed	-0.12861224
91	0xbbac54b1	-0.0052591194
92	0x3c085337	0.008320621
93	0x3e57fdcb	0.21092908
94	0x3d61bead	0.055113483
95	0x3be279fb	0.006911514
96	0x3d64d62f	0.055868324
97	0x3d94590e	0.07243548
98	0xbd7382a9	-0.05945078
99	0x3bddc097	0.0067673433
100	0x3d2b4574	0.041814283
101	0xbd1f6341	-0.038913015
102	0xbcb33e77	-0.021880371
103	0xbb9eb3d9	-0.004843217
104	0xbd9f79f5	-0.07786933
105	0x3da41199	0.08011169
106	0x3c9256fc	0.017863743
107	0xbe1dad36	-0.15398106
108	0x3e36e542	0.17860892
109	0xbdb55cef	-0.08855616
110	0x3e149291	0.14509036
111	0xbc7dab78	-0.015482776
112	0xbdcddcf0	-0.10051906
113	0xbe059213	-0.13044004
114	0xbe0b1232	-0.1358116
115	0xbde4d379	-0.11173148
116	0xbe1ff0ea	-0.15619245
117	0xbd8b19e2	-0.06792046
118	0x3b834ea3	0.004007177
119	0xbe1dbd92	-0.15404347
120	0x3e1be4b2	0.15223959
121	0x3d705127	0.058671143
122	0x3d838560	0.06421924
123	0x3e06803a	0.13134852
124	0xbcf15743	-0.029460555
125	0xbe34628c	-0.17615718
126	0xbdccb075	-0.09994594
127	0x3d73a946	0.059487604
128	0xbe440399	-0.19141997
129	0xbe8bde89	-0.27318218
130	0xbda171e1	-0.07883049
131	0x3d009d64	0.0314001
132	0xbbf71c0e	-0.007541186
133	0xbd928006	-0.07153325
134	0x3dc59cfe	0.096490845
135	0x3dfbaeb3	0.122891806
136	0x3d7ba568	0.06143704
137	0x3cc63674	0.024195887
138	0xbde042ff	-0.109502785
139	0x3e2b68fd	0.16739269
140	0xbd4fb555	-0.05071004
141	0x3e101288	0.14069569
142	0xbd56344f	-0.05229598
143	0xbdad454b	-0.08460482
144	0x3e864439	0.26223925
145	0x3e264291	0.1623633
146	0x3e51f9d9	0.20505466
147	0x3db79d4b	0.08965548
148	0x3e9d19a8	0.30683637
149	0xbcab59cc	-0.020916842
150	0xbe0a9f22	-0.13537267
151	0x3d8a9b17	0.06767862
152	0x3cdc9bd4	0.026929773
153	0x3e05e9d2	0.13077477
154	0xbe55e7b9	-0.20889176
155	0xbd2f3e09	-0.04278377
156	0x3cb8302b	0.022483906
157	0x3e6d3be1	0.23167373
158	0xbe0af3f8	-0.13569629
159	0x3c553a80	0.013014436
160	0x3d055828	0.032554775
161	0x3ce4464f	0.027865557
162	0x3cb976d6	0.022639673
163	0x3ca79392	0.02045611
164	0xbd5865ec	-0.052831575
165	0x3d55c87f	0.05219316
166	0x3c9dab69	0.019246774
167	0x3c17f57b	0.009274836
168	0xbd4039a2	-0.046929963
169	0x3d5d8dbf	0.054090258
170	0xbdaca8f0	-0.0843066
171	0x3d6ba02c	0.0575258
172	0x3b18a700	0.00232929
173	0x3df656a3	0.120282434
174	0x3cef1fa5	0.029189894
175	0xba6e60fa	-0.000909343
176	0xbc722880	-0.014780164
177	0x3e04503a	0.12921229
178	0xbdda090b	-0.10646256
179	0x3cfb9cec	0.030714475
180	0x3e197dca	0.14989391
181	0xbd3ae7f3	-0.04563136
182	0x3da2fabd	0.07957981
183	0x3cdf4294	0.027253427
184	0xbd778d18	-0.06043729
185	0xbbbddb59	-0.0057939705
186	0xbe1eec95	-0.15519936
187	0x3ce18d55	0.027533213
188	0x3dc7d7fa	0.09757991
189	0x3d8af1ea	0.06784423
190	0xbd2a8d6b	-0.041638773
191	0x3d94fd4b	0.07274874
192	0x3e073427	0.13203488
193	0x3e1356cc	0.14388579
194	0x3e0ea60d	0.13930531
195	0xbe182637	-0.14858328
196	0xbd8d9dcb	-0.06914862
197	0xbc2883e7	-0.010285354
198	0x3d48a122	0.048981793
199	0xbc04dbd4	-0.008109052
200	0x3da9ca7f	0.08290576
201	0x3c8d37c8	0.017238513
202	0x3cf0f892	0.029415403
203	0x3de0e94c	0.10981998
204	0xbb995cc4	-0.004680248
205	0x3ca6a122	0.020340506
206	0xbd0b46cc	-0.034003064
207	0x3d81c34b	0.06336077
208	0xbdafed2b	-0.08590158
209	0xbd4e07c5	-0.05030038
210	0x3d9aad2e	0.07552563
211	0xbd0cc3a6	-0.034366272
212	0xbe23a5d7	-0.15981232
213	0xbe04a144	-0.12952143
214	0xbd0e469d	-0.03473531
215	0xbd8106ff	-0.063001625
216	0x3aa05fa1	0.0012235531
217	0x3bf7e5b4	0.0075652245
218	0x3e230e07	0.1592332
219	0xbdc82383	-0.09772398
220	0xbd6351dc	-0.05549799
221	0xbd9ad83a	-0.07560773
222	0x3e8870ac	0.26648462
223	0x3d98b1e3	0.07455804
224	0x3be83403	0.0070862784
225	0x3e42ee19	0.1903614
226	0xbd581bbc	-0.052760825
227	0xbcf73882	-0.030178312
228	0x3bb3fa40	0.0054924786
229	0x3c809b57	0.015699072
230	0x3d3c6aaf	0.04600018
231	0xbd9d59d8	-0.07683152
232	0xbd82bc73	-0.063836
233	0xbd0cbf6b	-0.034362238
234	0xbda729fd	-0.081623055
235	0x3d5a9389	0.053363357
236	0xbc39ac2c	-0.011332553
237	0x3ba60722	0.0050667683
238	0xbd49ce7e	-0.049269192
239	0x3d9a0329	0.07520134
240	0xbe29c255	-0.16578038
241	0xbe25bd76	-0.16185555
242	0xbe30f3c1	-0.17280485
243	0xbd860b62	-0.0654514
244	0xbe65a515	-0.22426255
245	0xbe1bbc13	-0.15208463
246	0xbc23a0d6	-0.009987077
247	0xbc843bc5	-0.016141782
248	0x3e368dad	0.17827483
249	0x3bd98a1e	0.0066387793
250	0x3e79b02c	0.2438361
251	0x3daea732	0.08527984
252	0xbd2598c7	-0.040428903
253	0xbe05f2dd	-0.13080926
254	0x3e50166a	0.2032105
255	0x3db9b5f4	0.09067908

multi_head_attention.attn2.out_proj.bias f4 [32]
0	0x3c071fb4	0.008247305
1	0x3bba325b	0.0056822724
2	0x3a56a972	0.00081887015
3	0xbc72705d	-0.014797297
4	0x3997f912	0.00028986536
5	0x3a9d83b5	0.0012017401
6	0x3c0f64a6	0.008752024
7	0xbb751d0d	-0.0037401349
8	0xbd5d5d51	-0.05404407
9	0xbc304ac4	-0.010760013
10	0x3b263803	0.0025362975
11	0x3c50b403	0.012738231
12	0x3c88b6fe	0.01668882
13	0xbb0f054e	-0.002182323
14	0x3b08e0ad	0.002088587
15	0x3c82cc81	0.015966656
16	0x3b8837b7	0.0041570324
17	0x3b53790b	0.0032268192
18	0xbd2c4f2e	-0.0420677
19	0xbbe4893c	-0.0069743674
20	0xbc252564	-0.010079715
21	0x3bce0dbf	0.0062882598
22	0xbc5dfa1a	-0.013548398
23	0xbc27b16e	-0.010235174
24	0x3b333d23	0.0027349673
25	0x3c1e7edc	0.0096738
26	0xbbd05590	-0.006357856
27	0x3c5029df	0.012705295
28	0xbbe32049	-0.006931339
29	0x3c1aaeec	0.009441119
30	0x3b9187c5	0.004441234
31	0xbd42ad70	-0.047528684

main_classifier.conv_layer.0.weight f4 [32, 2, 2, 2]
0	0xbe980b4a	-0.29696113
1	0x3d87494a	0.06605776
2	0xbe1f0522	-0.15529302
3	0x3e84375f	0.25823495
4	0x3d7a2eaf	0.061079677
5	0x3ed82010	0.42211962
6	0x3e48c90a	0.1960794
7	0x3e46388b	0.19357507
8	0xbed5a990	-0.41730928
9	0xbe17ec06	-0.1483613
10	0xbe546738	-0.207425
11	0xbd23ff01	-0.040038113
12	0x3e9cbc34	0.30612338
13	0xbd8ecf9e	-0.069731936
14	0x3d27089f	0.040779706
15	0x3e9a5438	0.3014238
16	0x3e17debe	0.14831063
17	0xbea6bd51	-0.32566312
18	0x3df70485	0.12061409
19	0xbe4b9d64	-0.19884259
20	0xbe48931d	-0.1958737
21	0x3dfa94c0	0.12235403
22	0x3e7a2adf	0.24430417
23	0x3c724fd9	0.014789545
24	0xbdaf8acd	-0.08571396
25	0x3ea64173	0.3247181
26	0xbe24ed63	-0.16106181
27	0xbe6f50dd	-0.2337069
28	0x3dfcb452	0.12339081
29	0x3f06de22	0.526827
30	0x3ebd6600	0.36991882
31	0xbd3924ad	-0.045200992
32	0xbe3cca49	-0.1843654
33	0x3e096308	0.13416684
34	0xbe067834	-0.13131791
35	0x3e2d6631	0.16933514
36	0x3d38270e	0.04495912
37	0x3ec74ec3	0.38927278
38	0x3ebab67e	0.36467355
39	0xbdfdf3f3	-0.12400045
40	0x3e11e0bb	0.14245884
41	0xbe598fbc	-0.21246237
42	0x3bf85682	0.007578672
43	0xbe503bd8	-0.20335329
44	0x3e9007d7	0.2813098
45	0xbda5c44d	-0.08094082
46	0x3ea04c26	0.31308097
47	0xbdd4166d	-0.1035584
48	0x3e0812e7	0.1328846
49	0xbe68047e	-0.22657964
50	0xbe5c654a	-0.21523014
51	0xbd2da655	-0.042394955
52	0x3e552da8	0.20818198
53	0x3e0c8e57	0.13726173
54	0x3e8642f4	0.26222956
55	0xbe347853	-0.17624025
56	0xbbd41bc5	-0.006473037
57	0x3e1547e7	0.1457821
58	0xbdb034b2	-0.08603801
59	0xbd9e45c2	-0.07728149
60	0xbf425ab8	-0.75919676
61	0xbf56bcff	-0.83882135
62	0xbf562169	-0.8364473
63	0xbecdaf7d	-0.4017295
64	0xbd6f07db	-0.0583571
65	0xbe73198a	-0.23740211
66	0x3e9a96b0	0.3019309
67	0x3bde8eff	0.006791949
68	0x3e772ea2	0.24138883
69	0xbdeb2b50	-0.114828706
70	0x3ecfb395	0.40566698
71	0x3dbe4800	0.09291077
72	0x3c98d06e	0.018654075
73	0xbebddca0	-0.37082386
74	0xbdb08ec4	-0.086209804
75	0xbda5d32d	-0.08096919
76	0xbe97d50a	-0.29654723
77	0x3c984866	0.01858921
78	0xbe186735	-0.1488312
79	0xbf17a596	-0.5923704
80	0xbdb9fd07	-0.09081464
81	0x3e2486a5	0.16066988
82	0x3dd26604	0.10273364
83	0xbddab26a	-0.10678561
84	0xbf3a2c90	-0.72724247
85	0xbf39ebf8	-0.72625685
86	0xbeff8774	-0.4990803
87	0xbf1f8ea9	-0.6232706
88	0xbe83133c	-0.25600612
89	0xbe8b523f	-0.27211186
90	0x3ded6079	0.11590666
91	0x3e648bff	0.2231903
92	0xbe06d705	-0.13167961
93	0x3e5b14ce	0.21394655
94	0x3b330af9	0.0027319773
95	0x3e6e202a	0.23254457
96	0x3c249230	0.010044619
97	0x3e9a44ca	0.30130607
98	0xbcebb301	-0.02877188
99	0x3ded987c	0.1160135
100	0xbef37380	-0.47549057
101	0xbe3f87e1	-0.18704177
102	0xbea3fbfb	-0.32028183
103	0xbc043342	-0.008068861
104	0xbef7e210	-0.4841466
105	0xbe07c810	-0.13259912
106	0xbe2eec3c	-0.17082304
107	0xbdd637ac	-0.10459837
108	0x3e612605	0.2198716
109	0x3e3944da	0.18092671
110	0xbe1da932	-0.15396574
111	0xbe62558c	-0.22102946
112	0xbe064f40	-0.13116169
113	0xbe911e55	-0.28343454
114	0x3e1efab8	0.15525329
115	0x3d9ab1bb	0.07553431
116	0x3e1a2616	0.15053591
117	0x3ea01205	0.31263748
118	0x3ea12f29	0.31481293
119	0xbe273e61	-0.1633239
120	0xbc97025a	-0.018433738
121	0x3e430eee	0.19048664
122	0xbea6ebd2	-0.32601792
123	0xbe3e68f1	-0.1859472
124	0xbe5e4b24	-0.21708351
125	0x3e98e98a	0.29865676
126	0xbd9720e0	-0.07379317
127	0x3db2fa9f	0.087392084
128	0x3e4b9d1c	0.19884151
129	0x3c996720	0.018725932
130	0x3e439916	0.19101366
131	0xbd916ff1	-0.07101429
132	0x3dc07966	0.09398155
133	0x3e8a3432	0.26992947
134	0x3d212fff	0.039352413
135	0x3cf55b87	0.02995087
136	0x3e9701bf	0.2949352
137	0xbbe4565c	-0.0069683027
138	0xbe388709	-0.18020262
139	0xbcee4250	-0.029084355
140	0xbd1e72e9	-0.038683806
141	0x3eb3bb2b	0.35103735
142	0x3ef012e6	0.46889418
143	0xbd9adfbb	-0.075622045
144	0x3dff8f41	0.124784954
145	0x3e3edcea	0.1863896
146	0x3be4f750	0.0069874898
147	0xbeac30d4	-0.33631003
148	0xbd80b593	-0.062846325
149	0xbdba8e97	-0.09109228
150	0xbda31c57	-0.0796439
151	0x3e612a0f	0.219887
152	0x3e1f3754	0.1554845
153	0x3da2591a	0.07927151
154	0xbc61e0fe	-0.0137865525
155	0x3e2ee78b	0.17080514
156	0x3ed68c60	0.41903973
157	0x3f1803c2	0.59380734
158	0x3eb13c2a	0.34616214
159	0x3f18964e	0.59604347
160	0x3e8f4caf	0.27988192
161	0xbe847c70	-0.25876188
162	0x3cec767f	0.028865097
163	0xbaf5cd87	-0.0018753269
164	0x3f091cd4	0.53559613
165	0x3ec40582	0.38285452
166	0x3e09d255	0.13459142
167	0x3ef4f714	0.47844756
168	0xbe786dc8	-0.24260628
169	0x3e87d98e	0.2653317
170	0x3e8a6385	0.27029052
171	0x3cb0d88d	0.021587634
172	0x3e564ef0	0.2092855
173	0x3e089c42	0.13340858
174	0x3ecf56d9	0.40495947
175	0x3e923280	0.28554153
176	0xbe528dfe	-0.20561978
177	0x3e30c40b	0.17262284
178	0xbe31178a	-0.17294136
179	0x3e13d6d4	0.14437419
180	0xbf35cbe6	-0.7101425
181	0xbf13a731	-0.5767699
182	0xbf45c2f3	-0.77250594
183	0xbf118fc5	-0.5686
184	0xbe6dcb81	-0.23222162
185	0x3e36414f	0.17798351
186	0x3e1c4801	0.15261842
187	0x3e82419f	0.2544069
188	0xbdb4d619	-0.088298984
189	0x3e90ddc7	0.28294203
190	0xbdd34bf8	-0.10317224
191	0x3d5441d3	0.051820587
192	0x3e2c3702	0.16817859
193	0xbe88d750	-0.2672677
194	0xbcbc8503	-0.023012644
195	0x3e57eab6	0.21085629
196	0xbe3e95ad	-0.18611784
197	0xbe168bf5	-0.14701827
198	0xbdcbf5e6	-0.09959011
199	0x3e21ad80	0.15788841
200	0x3e36c305	0.17847832
201	0x3bf86321	0.0075801765
202	0x3e26fe1b	0.16307871
203	0xbeaf6f10	-0.3426442
204	0xbe2031b7	-0.15643965
205	0xbdb9d3ad	-0.09073577
206	0xbd8c10f2	-0.068391696
207	0x3e02d0d9	0.12774982
208	0xbe7fdee1	-0.24987365
209	0x3e59ceef	0.21270345
210	0x3a79478e	0.00095092587
211	0x3eaac83e	0.33355898
212	0xbd6d185b	-0.057884555
213	0xbe3ba87f	-0.18325995
214	0x3e49b2be	0.19697091
215	0xbe57e579	-0.2108363
216	0x3df175cb	0.11790045
217	0xbeaa13ab	-0.3321813
218	0xbdc0f511	-0.09421743
219	0xbec51505	-0.384926
220	0x3d386f82	0.045028217
221	0xbecd9ea8	-0.40160108
222	0x3afa5309	0.0019098233
223	0xbd4a739d	-0.049426664
224	0x3de6509d	0.112458445
225	0xbe3c6ea9	-0.18401588
226	0x3e8091fe	0.25111383
227	0xbddf440b	-0.1090165
228	0xbf0dd5be	-0.5540427
229	0xbf1dd29d	-0.61649495
230	0xbf20832f	-0.6270017
231	0xbf6484e7	-0.8926529
232	0x3d25ca85	0.04047634
233	0xbcd796fc	-0.026317112
234	0x3e18233c	0.14857191
235	0xbc9c8068	-0.019104198
236	0xbf10e934	-0.5660584
237	0xbf160956	-0.58607996
238	0xbe9b67a5	-0.30352512
239	0xbf2ad900	-0.66737366
240	0xbe81d8ac	-0.2536062
241	0xbe8cfadc	-0.2753514
242	0x3e3d7536	0.18501744
243	0x3d8a2cd0	0.067468286
244	0xbe6dc6e4	-0.23220402
245	0xbc4a1fa0	-0.012336642
246	0x3d55b9cb	0.05217914
247	0xbda783e0	-0.0817945
248	0xbe6d8ecb	-0.23199002
249	0xbd1d34b4	-0.03838034
250	0x3df95a20	0.12175393
251	0xbe7d1658	-0.24715555
252	0xbec72b14	-0.38900054
253	0xbf132bbf	-0.57488626
254	0xbda1224f	-0.07867872
255	0xbe852a38	-0.26008773

main_classifier.conv_layer.0.bias f4 [32]
0	0xbdb074f0	-0.08616054
1	0xbbb9256e	-0.005650214
2	0x3c055b52	0.008139448
3	0xbe5317da	-0.20614567
4	0x3e8259a3	0.25459012
5	0x3dac2c91	0.08406938
6	0x3d0d255f	0.034459468
7	0x3e3f1a55	0.18662389
8	0xbebe45e4	-0.37162697
9	0xbebf5b8d	-0.37374535
10	0x3eb30d90	0.34971285
11	0x3e589646	0.21151075
12	0x3ea73ddf	0.3266439
13	0xbbdcac01	-0.0067343717
14	0xbe41e102	-0.1893349
15	0xbe8c1b85	-0.27364746
16	0xbe002a45	-0.12516125
17	0xbe505045	-0.2034312
18	0xbe41ebde	-0.18937632
19	0xbe3da70b	-0.18520753
20	0xbe0d981e	-0.1382756
21	0x3e457168	0.19281542
22	0x3e289285	0.16462143
23	0xba9e7f65	-0.001209241
24	0xbe55fe3c	-0.20897764
25	0xbe9f226b	-0.31080946
26	0x3e83afaa	0.2571996
27	0x3ebae9d9	0.36506537
28	0xbea288f2	-0.31745106
29	0xbdb5246b	-0.08844837
30	0x3e9d8a5f	0.3076963
31	0x3e06a4a7	0.13148747
